weights/weight.pth (torch, 10719 bytes, 4 tensors)

fc1.weight f4 [100, 20]
00000000: 1773 12bf 75f5 b1bf 788e 533f ea77 7a3e
00000010: 2b03 5a3f e640 e7bd 8f48 27bf 47dc 933e
00000020: cbe9 bc3f 310e ddbe a19a fabd 0b8a 09be
00000030: 4fbd e13e e201 bd3e 29a9 f4be 958d 55bf
00000040: edd6 82be 79ab 87bf 5b37 0bbf 288e e2be
00000050: dcd4 3fbe 741f 6bbc 6d6d d73e e838 d6bd
00000060: 349a c03e 9af2 0abd 28da e83e b54d ab3e
00000070: a3ad 9a3e 9096 ba3e 4ba6 27be 1eaf 1cbf
00000080: af0e 03bf d27c 283e 5c38 1ebe 9839 933e
00000090: 818b 0fbf 394c 143f 88f4 0abe 8e75 5d3d
000000a0: 69bb 44bd f4d2 ccbd 95be 9e3c c5a1 10be
000000b0: 7de0 a23d fc3d 55be 0fbb 84be fed0 81be
000000c0: 9389 edbd 2bc0 9bbb 6db2 af3d 3d56 82be
000000d0: 55ea f93d a403 25bd 2c99 8fbe 0923 cebd
000000e0: 74c8 21bd 0a65 ee3d b4fa 95bd fe79 83bd
000000f0: f0b0 5bbe 9afd 7fbe d8e9 8b3c 6f1f a63d
00000100: e891 423d dc0e 0d3e 65bd 1abe a595 023e
00000110: a436 b43d 933e 0dbc 5a1f 83be a199 e73d
00000120: 8abb 82be 585a 9e3d df9e b4bd b523 00be
00000130: eeb3 25be 9499 823d fcff 82bd 1c3b 00be
00000140: 9b68 f73d 1a05 db3d 1ccb 8abe 6147 69bd
00000150: 58fe 643d c650 fd3d 76c3 b33c ca57 fdbd
00000160: b552 63be 8681 edbd 4ae6 46be 4760 7ebd
00000170: c69b 7bbe e820 82be e426 4abe 6526 02be
00000180: 3eef 5ebe 6f7b 90bd c73c 2ebd 44a3 4cbe
00000190: e505 10bf 5a33 6cbe 51f8 8d3e 5285 be3e
000001a0: 1139 2b3e 7898 a43e fd00 0bbd 7610 12be
000001b0: 1f58 dd3d 6a9b 173e 8d49 09bf 5f94 473f
000001c0: 9f12 69bf 3295 49be 4aa5 d2bc 75ab 3e3f
000001d0: 2140 173e f908 563e 71d0 02bd b05f 373f
000001e0: a8e9 63be 3dc3 88be 584b 8d3e 370c 863f
000001f0: c352 063f f298 22bf 256e 623f a592 af3e
00000200: 9bc2 9a3d b79c 283f 500b 77be 47f3 7f3e
00000210: fc12 a7bf 612d aebe 258e f33e 1734 35bf
00000220: 3333 2a3f 2c36 13c0 7ccc 503e ea2c 12be
00000230: ac31 d43e 663b c83e 4d7c 56be 1a11 0fbf
00000240: 3d0a cc3e db54 50be d155 7b3e ca12 f8be
00000250: c5a4 073f 4897 bebe 013c 06bf 0e40 ea3e
00000260: 053e f5be 3569 a4bd 2434 213f fbe2 3b3f
00000270: e2ee 32be b222 403e 25af 0dbf 436c 8dbe
00000280: 2128 7cbe f177 44be e3b2 96be 2505 8dbe
00000290: 4269 973e 0811 293e 5b88 e23e 9c9c a13e
000002a0: 241d 23be 4bf8 3d3f 5bd9 9cbe 7bff 8a3e
000002b0: 3994 763d 6063 a53f a128 61be 3ac9 383e
000002c0: 310b 49bf b984 eb3e 71d6 a2be 55d2 ef3e
000002d0: 2400 b13e 49be 0ebd 2000 f3bd 3fe0 d0be
000002e0: 05cb d1bd ecb9 5b3a 8b50 2f3f ff53 b7be
000002f0: 2372 7dbe 1700 f33e 42f2 853c d0a0 55be
00000300: 0f41 06bf ca2b 1bbe b568 24bf 9539 fdbd
00000310: 0a1d 5c3e a47c 6a3e 7bd2 833f 71f0 2b3f
00000320: 67b3 853e 8b80 5a3e 6032 e2bd d787 51c0
00000330: 0dbb bb3e 62e3 e1be 40f1 123f d91f a63e
00000340: 0500 cdbe 8f8a a13e 0a6a fbbe b232 c03e
00000350: 9396 043f a762 bfbf 5216 123e c520 4ebc
00000360: f0c6 613c 77d5 ff3e 1263 afbd 33a9 e53e
00000370: a653 2cbd 1dc4 403e cfff ef3c 1894 46be
00000380: 90bb 663e 0947 ffbc e6c6 da3d e795 c33e
00000390: 171d 333e f3c1 40bd 0d60 aa3e 9de1 a6be
000003a0: 962b 05be 6dcf 0b3e 851b 4bbe 0696 1fbe
000003b0: bcc7 423e 0166 e4bd 94a2 3dbe 1bce 363d
000003c0: 4d4b ae3c b3bf 063e 1bd2 8bbe 717c b5bd
000003d0: 6530 39bd f4b3 7abd 5ba5 08be 5e9d 6cbe
000003e0: 69bd 073e 4fd4 89be d519 80be 79da c3bd
000003f0: b5f5 c6bd f78f 57be 88bf 62be b673 bd3c
-0.57206863 -1.3903033 0.82639265 0.24459806 0.85161084 -0.11291675 -0.6534509 0.28878996
1.4758848 -0.4317489 -0.122365244 -0.13431565 0.44089743 0.369155 -0.4778531 -0.8341916
-0.255546 -1.0599204 -0.5438134 -0.44249082 -0.18733543 -0.014350761 0.42075673 -0.10460073
0.37617648 -0.03392277 0.4547894 0.33457723 0.302106 0.36442995 -0.1637203 -0.6120471
-0.5119428 0.16453865 -0.15451187 0.28754878 -0.5607224 0.57928807 -0.13569844 0.054067187
-0.04803029 -0.100011736 0.019377986 -0.1412421 0.07952974 -0.20824426 -0.25923964 -0.2535476
-0.11598506 -0.004753133 0.08578954 -0.2545642 0.122028984 -0.040286675 -0.28046548 -0.10065276
-0.039497808 0.116403654 -0.073232085 -0.064197525 -0.21454215 -0.24999085 0.017079279 0.08111464
0.04750243 0.137752 -0.15111311 0.12752397 0.08799484 -0.008620876 -0.25609857 0.11308599
-0.25533706 0.077320755 -0.08819365 -0.12513621 -0.16181919 0.06376949 -0.063964814 -0.12522548
0.12080499 0.106943324 -0.27108085 -0.056952838 0.055906624 0.12368922 0.021943789 -0.1237026
-0.22199519 -0.1159697 -0.19423786 -0.062103536 -0.24571142 -0.2541573 -0.19741398 -0.12709959
-0.21770951 -0.07054793 -0.04253843 -0.19984156 -0.56258994 -0.23066464 0.27728513 0.3721109
0.16720988 0.32147574 -0.03393649 -0.14264092 0.108078234 0.1480538 -0.53627855 0.7796077
-0.9104404 -0.1968582 -0.025713582 0.7448037 0.14770557 0.2090186 -0.031937066 0.7163038
-0.22257102 -0.26711455 0.27596545 1.0472478 0.52470034 -0.63514626 0.8844932 0.34291568
0.07556649 0.6586413 -0.24125409 0.24995147 -1.3052669 -0.34018996 0.47569385 -0.7078261
0.66484374 -2.3001814 0.20390505 -0.14274946 0.41444147 0.39107817 -0.20945854 -0.5588547
0.3985156 -0.2034487 0.24544455 -0.48451835 0.52985793 -0.37224793 -0.5243531 0.45751995
-0.4789888 -0.08027879 0.62970185 0.7339322 -0.17473939 0.18763235 -0.55345374 -0.2762166
-0.24624683 -0.19186379 -0.29433355 -0.27542987 0.29572493 0.16510403 0.44244656 0.31564796
-0.15929085 0.7420699 -0.3063458 0.2714804 0.06019995 1.2920952 -0.21988155 0.18045512
-0.785327 0.45999697 -0.3180423 0.46840158 0.3457042 -0.03484944 -0.11865258 -0.40796086
-0.10243801 0.00083818915 0.68482274 -0.3580627 -0.24750571 0.47461006 0.01635087 -0.20862126
-0.5244302 -0.15153423 -0.6422227 -0.123644985 0.21495453 0.22899109 1.0298609 0.6716376
0.26113436 0.21338098 -0.110447645 -3.273916 0.36666146 -0.44118792 0.5739937 0.32446173
-0.40039077 0.31551024 -0.4910434 0.37538677 0.5179226 -1.4951981 0.14266327 -0.012581055
0.013780341 0.49967548 -0.08563818 0.4485565 -0.04207196 0.18824811 0.029296784 -0.19392431
0.22532487 -0.031161802 0.10682468 0.38200304 0.17491566 -0.047059964 0.33276406 -0.32594004
-0.13004908 0.13653345 -0.19834717 -0.15584573 0.19021505 -0.11152268 -0.1851905 0.04463015
0.02127614 0.13159065 -0.27308735 -0.08861626 -0.04521217 -0.061206773 -0.13344328 -0.23106906
0.13255848 -0.2691979 -0.25019708 -0.09563155 -0.09714834 -0.21051012 -0.22143376 0.023126464

fc1.bias f4 [100]
00000000: 053c 363e 35e6 853e 51e5 5dbe d8f7 25be
00000010: e985 2bbe 70ac 1c3e 4a5e 3dbf 8501 803e
00000020: c90c 1b3f 85ad 15c0 1b01 833f d343 aa3e
00000030: 258e f33d 796e 40bd c5a1 ab3e 940b c53d
00000040: 7014 c4be e595 4abe 6cc9 423f 0976 7ebe
00000050: feff 76be 6c07 513c 70b4 81be 7532 8d3e
00000060: d57b 3abe 996e ee3e c35b 47bd f96d eabe
00000070: 6d30 6bbe 58f1 27bf 1749 0c3f d394 19be
00000080: 5856 de3c 3afc a5bf 5d6c 2cbe e8e4 523d
00000090: dd48 8abe 085d cf3d e30f d6bd ad89 b9bd
000000a0: 2ea2 7ebe 22c1 f93e ea29 84bc fe7f f1bd
000000b0: 034d f7bd 61ca 7fbf 3e90 38be 03a0 75bd
000000c0: 3a60 c9bd 769d 133d 9068 0abd 1147 fc3e
000000d0: f5e7 8d3d fc13 a73e e5d1 e4bd daf6 f63e
000000e0: 7bfe 92bd cd5f 2abe 30f1 06bd 0228 b2bc
000000f0: aed2 15be ee41 3f3f 6a20 afbd 3396 44be
00000100: 55da 51be 3a20 793d ce62 d7bc 652b b03e
00000110: b039 0cbc 85c4 7d3c 82dc a2bf 17e9 a5bb
00000120: 55f7 f13d ce23 5bbe 3f85 88bd b537 48be
00000130: 5315 1c3f a00c 83be a6fd e13d 02b4 c43e
00000140: 1beb 673e 7ee7 abba bf3c 833e 1f2b 75be
00000150: c885 dd3e 7856 4a3d f3fd 163e e9d0 8c3f
00000160: 2b4b 363d daea 11be f689 493e 83d8 26be
00000170: 5c90 c7be 809e 84be 59e1 9d3c c0ed 66be
00000180: bc8e 5e3f 523b 98be 48d8 5b3b a354 14be
0.17796333 0.26152197 -0.21669509 -0.16207826 -0.16750301 0.15300155 -0.73972 0.2500116
0.60566384 -2.3387158 1.0234712 0.3325487 0.11892346 -0.046980355 0.33521858 0.09621349
-0.38296843 -0.19783743 0.76088595 -0.24849714 -0.24121091 0.012758117 -0.25332975 0.27577558
-0.182113 0.46568754 -0.048671495 -0.45787027 -0.22967692 -0.65602636 0.54799026 -0.14998178
0.027140781 -1.2967598 -0.16838212 0.051487833 -0.27008715 0.10125166 -0.10452249 -0.09059463
-0.24866554 0.4878016 -0.016133267 -0.11791991 -0.12075236 -0.9991818 -0.18023774 -0.059967052
-0.09832807 0.03603884 -0.033791125 0.4927297 0.06929008 0.32632434 -0.11172847 0.48235208
-0.071774445 -0.16638108 -0.032944858 -0.021747593 -0.14631149 0.74709976 -0.08551104 -0.19197921
-0.20493443 0.06082175 -0.026292231 0.34408107 -0.008558676 0.015488748 -1.2723544 -0.005063187
0.11814753 -0.21400377 -0.0666604 -0.195525 0.6097004 -0.2559557 0.11034708 0.38418585
0.2264828 -0.0013115255 0.25632283 -0.2394223 0.4326613 0.04939887 0.14745311 1.1001254
0.04450528 -0.14249745 0.19681534 -0.1629353 -0.38977325 -0.25902176 0.019272493 -0.22551632
0.86936545 -0.29732758 0.0033545662 -0.14485411

fc2.weight f4 [2, 100]
00000000: b77c 40bf 451d c43e e0bc bcbc 9f84 97bb
00000010: 43e4 063e 18e0 ec3e 980f 79bf 398d 4cbe
00000020: 7e9e e8be 59b9 adbf c11f 903f 1d37 ca3d
00000030: a7c4 93bc 82f3 00bc 053f 093e ee53 62bc
00000040: 4f3f b0bf b712 5c3c 8344 483f 80a1 523c
00000050: 3014 6e3d 3cfe 963d 9520 a1bd 6cb2 973e
00000060: d82e 4d3e c163 dd3e c5da 7cbe c8b8 87bf
00000070: d6cb 013e 8224 1d3f ab61 253f b0a4 b9bb
00000080: 4e2f 9d3e 4a2c 8abf 011f 6b3c d84a a83d
00000090: b33b a4bc 08eb d53d bb91 163e ebe6 f0bc
000000a0: c634 323d 705b 4d3f 4d01 59be 2b1c 833c
000000b0: 8958 c23d 64ea c7bf 63a8 a3bd 785b 99bd
000000c0: cb82 cd3d f790 c43b c23c 5c3d 1105 13bf
000000d0: 70ea 043d c3ed 063e aefc 72bb 5fb0 183e
000000e0: 3640 db3d d671 413d d7a1 723d d16b 60bc
000000f0: ce20 813d 7935 17bf 0e59 35bc d720 d23d
00000100: a7ff 6ebc ad4a 70bf 76b9 9238 edd2 a2bf
00000110: 8733 953f 4e11 d6bb fed9 64bf 1d3a 033f
00000120: 961b b43e f4ce b93c beca 51bc a0f7 db3d
00000130: 9444 7a3d 5e79 893d 028d edbb a727 303e
00000140: fd82 8f3c 6bb5 2abc a2ea e53d d054 213c
00000150: bb6b 853e 2a41 53bf 900b 973d fefa 68bc
00000160: 7567 003f 7a5e f2ba 0e6e 8c3e 1aad 7fba
00000170: 88fe cbbf caff 21bd a0a5 c0bd ec97 e13e
00000180: c1ee 763f 7631 323d 9b69 7f3d 3d2d 1fbc
00000190: c963 0dc0 02da 1bbd aee8 373c 0164 8e3d
000001a0: 5919 1bbc ce9c 62be c9ce c8bf 5cd0 4b3f
000001b0: 24a2 623f ac0d 86be c7ff 293f bc02 35bd
000001c0: 9881 c53d 7d17 ec3b b75e 46be 78d1 143f
000001d0: 3e5c a9be 836f 0b3d ded9 0a3f 485e 70bd
000001e0: e688 9abc 4efd 10bd 5eb1 8f3c 5e6c 2b3d
000001f0: 0419 d33e f255 d6be 9ee7 4d3f 8388 aabf
00000200: 9c03 d4bc 9aec 65bf 72aa 90be 6093 73bd
00000210: f1b9 1a3f a588 7bbf 4461 90bd ebe7 e23c
00000220: 48ea a9ba 4a1d 513c b943 f43e 26cd 8b3d
00000230: db15 923d b9c5 89be 2672 7bbe d6ef 903c
00000240: 2fb7 023d 29cd 7bbf 7ad4 bcbd b21c ccbd
00000250: 9f97 05bd d216 e43d 46e2 aabd b8b8 203e
00000260: 3d8f d6bd ce74 3f3f 06db 23be b0c1 8b3c
00000270: 5a19 8b3a 3395 13bd 64f9 213c 01ce e33d
00000280: 76c9 063d 058c 2fbc 6af9 ac38 e6e7 c33f
00000290: 52d3 1f3d 9ae6 7dbf 8c3f 3cbc 7b47 74bd
000002a0: 83ef 2c3f c43d ee3d c355 aabf edb6 01bf
000002b0: 4d2b df3e b340 bdbc f597 b23d 0ad8 683c
000002c0: 46f6 0e3f 74d1 c9bc fa55 883d a449 05bf
000002d0: dcfd 2ebc f576 f33b f3e5 353d 98d6 72bb
000002e0: 4a20 ecbd 03b1 1f3d 7c1d 423c 6dfe 993f
000002f0: a6e8 06bf 32ec c9bd 3f74 853f 8117 f83d
00000300: e1f3 fe3d 6541 bf3d 92b5 863c b702 aabf
00000310: d680 c43e d8ab a93d 7e90 c1bc 183f 80bd
-0.751903 0.3830358 -0.023039281 -0.004623964 0.13173012 0.4626472 -0.9728942 -0.19975747
-0.4543342 -1.3572189 1.125969 0.09873793 -0.018038107 -0.007870557 0.13402946 -0.013813956
-1.376932 0.013432196 0.7822954 0.012855887 0.05812472 0.0737271 -0.07867543 0.29628313
0.200374 0.4324017 -0.24692829 -1.0603266 0.12675413 0.6138383 0.64602154 -0.0056653842
0.30700153 -1.0794766 0.014350654 0.082174 -0.020047998 0.10445219 0.1470403 -0.029406985
0.04350736 0.8021765 -0.21191902 0.016004642 0.09489543 -1.5618405 -0.079911016 -0.074881494
0.100347124 0.0059987265 0.05376888 -0.57429606 0.03245014 0.13176636 -0.0037076878 0.1491103
0.10705607 0.047227703 0.059236374 -0.01369758 0.06305085 -0.5906597 -0.011068596 0.1026017
-0.014587319 -0.93863946 6.996367e-05 -1.272062 1.165635 -0.0065328246 -0.8939513 0.5126055
0.35177296 0.02268169 -0.012804685 0.1074059 0.061100557 0.06712602 -0.0072494755 0.17202626
0.017518515 -0.01041923 0.11226393 0.009846881 0.26058754 -0.8252131 0.07375252 -0.014219997
0.5015786 -0.0018491291 0.27427715 -0.0009753272 -1.5937052 -0.03955058 -0.094065905 0.4406122
0.9645806 0.0435042 0.062356573 -0.0097153755 -2.2092154 -0.038049705 0.011224909 0.06952668
-0.009466493 -0.22130129 -1.5688106 0.79614806 0.88528657 -0.26182306 0.6640591 -0.04419206
0.09643859 0.0072049485 -0.19372068 0.58132124 -0.33078188 0.034041893 0.5423869 -0.058683664
-0.018864106 -0.03539782 0.01754063 0.041851394 0.41230023 -0.41862446 0.80431545 -1.332291
-0.025880627 -0.8981415 -0.2825504 -0.05946672 0.60439974 -0.9825538 -0.07049802 0.027698478
-0.0012963498 0.012763331 0.47707918 0.06826238 0.07133075 -0.26908663 -0.24555263 0.017692488
0.03191298 -0.98359925 -0.09220214 -0.09966411 -0.0326153 0.11137165 -0.083439395 0.15695465
-0.10476539 0.74787605 -0.1600152 0.01706013 0.0010612414 -0.03603096 0.0098861195 0.111232765
0.032906972 -0.010714536 8.248056e-05 1.5305145 0.03901989 -0.99179995 -0.01148976 -0.05963848
0.67552966 0.116328746 -1.3307422 -0.5066975 0.43587723 -0.02310214 0.0872039 0.014211664
0.55844533 -0.024636008 0.06657024 -0.5206549 -0.010680642 0.0074299523 0.04440875 -0.0037054177
-0.11529596 0.03898717 0.01184785 1.203077 -0.52698743 -0.09859504 1.04261 0.12113858
0.1244886 0.09338645 0.016444001 -1.3282079 0.38379544 0.0828473 -0.02362847 -0.06262034

fc2.bias f4 [2]
00000000: 81d2 853e d927 483e
0.26137164 0.1954645
